HW1.DNN/DNN_30_16_8/best_DNN_30_16_8_model_20250920_192009.pth (torch, 7615 bytes, 7 tensors)

net.0.weight f4 [30, 7]
000000 8c 03 26 bd 82 b5 b8 bc 15 03 7e 3d 95 e2 19 3e
       -0.040530726 -0.022547487 0.062014658 0.1502784
000010 de 98 80 be 71 25 eb bd e5 e6 9e be 6f 6e 33 bd
       -0.25116628 -0.11481751 -0.31035534 -0.04380649
000020 8f 2e 04 bf 22 39 74 be 7e 77 1b bf e4 54 90 3e
       -0.5163354 -0.2384992 -0.60729206 0.28189766
000030 f1 9e 4d bf f4 a2 4c bf d4 1d 4c 3e 80 51 1c bf
       -0.8032065 -0.79936147 0.19933254 -0.6106186
000040 47 46 d5 be c1 28 de be 4c bf 51 bd c8 78 cc be
       -0.4165518 -0.43390468 -0.051207826 -0.399359
000050 d8 df 62 bf 6c 62 eb bd 6b 26 23 3e 00 13 ec be
       -0.8862281 -0.11493382 0.15932624 -0.46108246
000060 a4 b6 fe be fc e5 b4 3c 4e 9f b9 be 0d 90 24 bf
       -0.4974872 0.022082321 -0.36254352 -0.64282304
000070 02 38 40 3d d7 3a d6 bd c4 28 c8 be de 7e e9 be
       0.046928413 -0.104604416 -0.39093602 -0.45604604
000080 8c 14 a8 bd 27 0e 10 bf 9e e6 1e bf 8f fc c6 be
       -0.08207044 -0.56271595 -0.62070644 -0.38864562
000090 31 c3 6b bf e6 7d 15 bf 32 3e f1 be 39 3a 8d bf
       -0.92094713 -0.5839523 -0.47117764 -1.1033393
0000a0 4b 31 2b 3f 2d 81 2a 3f d4 1b 25 bf b3 92 c1 3e
       0.6687209 0.66603357 -0.6449559 0.37807235
0000b0 85 3e 99 bf 39 9a 0e 3b a0 24 9b be ad fd 40 3f
       -1.1972204 0.0021759404 -0.3030138 0.7538708
0000c0 5b 91 02 bf 32 56 47 bd ed 7a 1f 3e f9 61 c9 be
       -0.51003045 -0.048666187 0.15574236 -0.3933256
0000d0 bb 6a 91 be 26 31 c8 3e 07 5d db 3e 53 b3 81 be
       -0.2840174 0.39099997 0.42844412 -0.25332126
0000e0 1e ae 5f bc e8 81 b0 bc 02 26 4b be ba e3 00 3e
       -0.013652353 -0.02154632 -0.19838718 0.12586871
0000f0 da 80 da bd ed 55 8e be d5 bf 84 bd 82 98 c1 bd
       -0.10669108 -0.2779993 -0.064819016 -0.09452917
000100 1b 4f f3 bd 17 8f fd bd 94 02 c4 3d 5b 17 13 3e
       -0.118803225 -0.12380808 0.09570804 0.14364378
000110 88 6e 82 bd 9b 63 84 3e 84 81 61 bd 8c 6c 03 3e
       -0.063687384 0.25857243 -0.055055156 0.12834376
000120 0d b9 da be 4f d5 29 3e 07 f6 a5 be 4d 07 29 3d
       -0.42719308 0.16585277 -0.32414266 0.04126673
000130 94 d1 21 be 32 63 00 c0 2a 81 01 c0 40 72 dc be
       -0.15802604 -2.0060544 -2.0235085 -0.43055916
000140 db 8d 1e c0 07 5d 56 c0 57 48 8a 3f 2d cc a8 3f
       -2.4774082 -3.349428 1.0803326 1.318731
000150 58 50 e6 bf 14 81 01 3f 26 59 3c bf 8b 69 30 3f
       -1.7993269 0.5058758 -0.7357353 0.68911046
000160 27 33 99 bf b5 dc 8d 3e 47 51 7f 3f d3 c1 df bc
       -1.1968735 0.2770745 0.99733394 -0.027314102
000170 98 58 20 bf c7 a4 d0 3d f1 b1 80 3e 85 5f 88 3e
       -0.62635183 0.10187679 0.2513576 0.26635376
000180 2a 16 1b be d4 cf bc bc 76 20 ce be 38 3a d7 3b
       -0.15145174 -0.023048319 -0.4025914 0.0065682195
000190 9d e3 62 bf 00 5a ed bb 0f 5b 13 3f 92 25 d2 3e
       -0.8862856 -0.007243395 0.5756082 0.4104429
0001a0 58 b8 9c be 89 c4 87 be f0 96 17 c0 77 db 22 bf
       -0.30609393 -0.26517132 -2.3685875 -0.63616127
0001b0 db a6 ad bf 2b f2 05 c0 34 30 fa bd e7 37 c8 3e
       -1.3566545 -2.0929058 -0.12216225 0.3910515
0001c0 c5 79 c0 bd ab c1 d4 3b c0 0f 27 bd 00 ec d8 3e
       -0.09398226 0.0064928136 -0.040786505 0.42367554
0001d0 82 d0 61 3c 77 8b 96 bd 97 2f c2 be 99 c8 d7 3c
       0.013782622 -0.073508196 -0.37926933 0.02634077
0001e0 58 b9 77 be 08 9f 3c 3d bb fb 07 be 16 96 7c 3e
       -0.24191797 0.0460501 -0.13279621 0.24666628
0001f0 ee 97 6d 3d 93 45 8b be 18 6f d7 bf 13 b5 80 bf
       0.05800622 -0.27201518 -1.6830778 -1.005526
000200 f8 84 a7 bf 0f e7 b9 bf 2e 90 13 bf de c0 2c bf
       -1.3087454 -1.4523638 -0.57641876 -0.6748179
000210 bd d9 1d 40 51 d7 a4 be 0f ae 21 3b 29 b7 01 3e
       2.4664147 -0.32195523 0.0024670397 0.12667526
000220 57 cf cd 3e 92 72 f3 be ca 23 44 be 3a 25 9c be
       0.4019725 -0.47548348 -0.19154277 -0.30497152
000230 e7 93 aa be dd ed c7 3d ff 92 d7 be ed 3b 12 bf
       -0.33315966 0.09762166 -0.42104337 -0.5712269
000240 e6 1b f5 be e1 8e b6 be 72 00 a7 be cd 9d 45 bd
       -0.47872847 -0.35655883 -0.32617527 -0.048246194
000250 cb b4 9a bd 53 de ee bd 31 f4 4e be 23 4d 9d 3c
       -0.07554015 -0.11663499 -0.20210339 0.01920182
000260 1b 17 15 3e 57 84 97 be 6d 08 d1 be 3b 98 d4 be
       0.14559595 -0.29593155 -0.4082674 -0.41522393
000270 4d 0d 8c bf a1 36 95 be 87 66 8f 3e d1 67 5c 3e
       -1.0941559 -0.2914324 0.2800791 0.21523978
000280 1d 69 33 3f da cf 80 bd 73 08 b3 3c e0 16 f9 be
       0.70082265 -0.062896445 0.021854615 -0.48650265
000290 c7 60 e5 bd df 29 03 be 1f 2b ac bd 14 f4 8f be
       -0.112000994 -0.12808941 -0.08406662 -0.28115904
0002a0 51 c1 ab bf 03 17 2d c0 9b d3 ba c0 a1 15 5d c0
       -1.341837 -2.7045295 -5.8383307 -3.4544451
0002b0 e8 7c 63 c0 2c 3d 77 40 b2 e1 66 3e ed 5e c7 bf
       -3.5544987 3.8631086 0.22547033 -1.5575844
0002c0 b4 98 b5 3e ed 57 e1 bf b6 3c 7e bf 11 99 d6 3f
       0.35468066 -1.7604958 -0.9931139 1.6765462
0002d0 d0 78 60 be bb cd e4 3f fb 5c de c0 40 9d b7 bf
       -0.21921086 1.7875284 -6.94885 -1.4344864
0002e0 1a 05 63 bf 85 7f cc bf 3e 8f 03 c0 70 63 3d 3f
       -0.8867966 -1.5976416 -2.0556178 0.73979855
0002f0 b7 4f be 3f f3 22 bb bd 12 ef ca be 34 b5 85 3e
       1.4868077 -0.091375254 -0.3963552 0.2611481
000300 29 5a b9 3e c1 9b 3f be 10 b5 14 be 5c c3 a1 bc
       0.362016 -0.18711759 -0.14522195 -0.019746475
000310 64 62 01 bf 32 49 00 bf c1 1f 12 be 53 17 96 3e
       -0.5054076 -0.5011169 -0.14269926 0.2931467
000320 38 07 fa bd c7 d5 e6 be 78 96 62 bf 9f c2 27 c0
       -0.12208408 -0.45084974 -0.8851085 -2.6212537
000330 8b 98 36 c0 08 ef ff c0 55 90 8b c0 bb 23 99 bf
       -2.8530605 -7.9979286 -4.3613687 -1.1964029
000340 6d 6e 64 3f b7 29 d5 40
       0.89230996 6.661342

net.0.bias f4 [30]
000000 40 28 87 bf fd c2 3e c0 cb 20 07 c0 48 29 cd bf
       -1.0559158 -2.9806511 -2.1113765 -1.6028223
000010 1a 60 b9 bf 3d e0 ef bf ac 9d 9f c0 a4 98 f1 bf
       -1.4482453 -1.8740307 -4.987997 -1.8874707
000020 9c 44 bd bf dc 4c 38 bf 4e 2c 02 c0 ea 55 07 c0
       -1.4786563 -0.7199228 -2.0339541 -2.1146188
000030 de 45 7b c0 f3 6f c2 bf 6e 99 27 c0 b6 1d 5b c0
       -3.9261394 -1.5190414 -2.6187396 -3.4236884
000040 22 6d f6 bf 62 79 43 bf 5c 46 3e c0 ef d1 35 c0
       -1.9252055 -0.7635709 -2.9730444 -2.8409383
000050 a7 04 ee bf 24 fa 6d bf 5f d4 9f bf 98 22 9a bf
       -1.859517 -0.9295981 -1.2486686 -1.2041807
000060 d5 8a b8 3f 7e 54 56 c0 08 a5 87 bd ed b4 a2 bf
       1.4417368 -3.348907 -0.06623274 -1.2711464
000070 d9 12 fd bf 8d b2 54 c0
       -1.9771377 -3.3233979

net.2.weight f4 [16, 30]
000000 c7 7b d2 bd 75 b1 05 bf 2a 22 90 3d d5 bf 64 bf
       -0.10277515 -0.522239 0.07037766 -0.8935521
000010 0e 97 48 bf e6 8a 80 be eb 2d 4d be 27 ba 06 3d
       -0.7835549 -0.2510597 -0.20037048 0.032892372
000020 10 3c 7e 3e 48 f2 8f 3e a1 05 12 be ba fb 16 bf
       0.248276 0.28114533 -0.1425996 -0.58977854
000030 cc 37 0a 3f 71 41 16 be 56 af 07 bf f6 e5 d6 be
       0.5399139 -0.14673401 -0.53001916 -0.4197232
000040 b1 5f 3a be ad 58 95 3c 4a de 2f bf 10 1d de bd
       -0.18200566 0.01823076 -0.6869856 -0.10845387
000050 d5 c5 bb 3e 84 80 b3 be 55 3f cc 3d 80 c4 31 3e
       0.3667437 -0.35058987 0.09973017 0.17360115
000060 57 f8 61 be 3e d0 37 be cf ab 8e be 7d 27 96 be
       -0.2206739 -0.17950532 -0.27865455 -0.29327002
000070 b1 a7 10 bd a8 65 47 bf db 6b 12 3d f0 f9 09 bd
       -0.035316173 -0.7788949 0.03574739 -0.033685625
000080 55 a5 16 3e bc 09 88 bf b8 e0 37 3e 4a 64 c6 be
       0.14711507 -1.0627971 0.17956817 -0.3874839
000090 2d 1d 82 bf fc 6e 09 bf 90 4f 89 bd c6 52 9a 3e
       -1.0165154 -0.53684974 -0.067046285 0.30141276
0000a0 c1 eb 16 3c ff 52 8d bf 00 51 b0 bf 14 bb fe be
       0.009211482 -1.1040953 -1.3774719 -0.49752104
0000b0 6b 08 4c bf 64 e4 22 be c8 58 e5 be 4e 3b 8b 3c
       -0.79700345 -0.15907437 -0.44794297 0.016996052
0000c0 b1 d4 3c be 81 49 d4 be 01 b3 ef be af 2b 57 be
       -0.1844051 -0.4146233 -0.46816257 -0.21012758
0000d0 ff c9 1a bf 0c c5 1c be cb 97 2d bf e7 e3 69 bf
       -0.6046447 -0.15309542 -0.6780974 -0.91363376
0000e0 41 b8 07 be 5c 64 2e 3e ef 89 6d bd 76 39 dc bf
       -0.13253881 0.17030472 -0.05799287 -1.7205036
0000f0 8a 72 c4 be ef a8 3b be 1a 85 b2 3e 2d b2 dc be
       -0.38368636 -0.18326162 0.34867173 -0.43104687
000100 7c 91 be 3d 7f 68 62 3e 7c 16 09 bd 0a 42 c6 be
       0.09305093 0.22110175 -0.03346871 -0.3872226
000110 be e7 b5 bd 49 49 a8 be 66 29 89 be b9 ad 56 bd
       -0.08882092 -0.32868412 -0.26789397 -0.05241177
000120 a4 11 ff bd 43 63 4c be 9f d1 8a be b6 22 c2 bd
       -0.124545366 -0.1995974 -0.27113053 -0.09479277
000130 cd 1d ba 3c a4 b7 1a 3d a9 96 c2 bd 60 f3 16 be
       0.022719288 0.03777279 -0.095013924 -0.14741278
000140 92 b7 88 bd 86 bd a3 3c d2 3d 2d be 95 c4 5b 3d
       -0.06675638 0.019987833 -0.16918114 0.053654272
000150 79 f6 8b be a3 1d 61 be be d6 09 bf e7 6a d6 bd
       -0.2733648 -0.21983962 -0.53843296 -0.10469609
000160 d7 ca 44 3e e8 02 6c bd e5 d9 8a 3e 6b 16 5c bf
       0.19218002 -0.05761996 0.27119365 -0.8597171
000170 9c 0a a4 bd d6 ed 1d 3e a4 58 49 bd cb 15 8d bf
       -0.08009836 0.15422758 -0.0491568 -1.1022276
000180 d0 56 1a be ae e7 44 3e a0 ae f6 3d f3 bf 1a be
       -0.15072179 0.19229004 0.12045026 -0.15112285
000190 88 3b a1 bd cd 3c 3b c0 84 d5 89 3e 17 2e 2d 3d
       -0.07872683 -2.925586 0.26920712 0.042280283
0001a0 f9 0c 33 be 88 46 38 bf 58 f3 1d 3d 6e f6 a4 be
       -0.17485417 -0.7198262 0.03856215 -0.3221926
0001b0 ab 97 72 bf 78 00 61 be a6 16 f5 bd d3 33 9f 3c
       -0.94762677 -0.21972835 -0.119672105 0.019433891
0001c0 f8 8a a0 be b3 dd 40 be 1f 2d 09 c0 a7 50 d1 bf
       -0.31356025 -0.18834572 -2.143379 -1.6352738
0001d0 d6 94 0b c0 4e 5d 90 3e 72 89 61 3d de 9c 8f be
       -2.1809592 0.28196186 0.05506272 -0.28049368
0001e0 a5 8d a1 be de 19 9d be a3 8b 83 3e 0c 89 76 be
       -0.3155338 -0.30683798 0.25692472 -0.24075717
0001f0 23 14 67 be 2e b3 9f be 75 ca 98 be d9 76 93 3c
       -0.22566275 -0.3119139 -0.29841962 0.018001007
000200 17 b6 9e be 93 4d 42 3e 85 98 06 bd d6 70 91 be
       -0.309983 0.18974905 -0.032860298 -0.284064
000210 94 86 ff bd eb 4e 53 3e 52 d4 ca bd ca d9 98 be
       -0.124768406 0.20635574 -0.09903778 -0.2985366
000220 3d 3d 4b be 6b d1 88 be db b5 7c be 35 f0 42 be
       -0.1984758 -0.26722273 -0.24678747 -0.19036944
000230 06 a1 3b 3d ce f9 61 be 16 22 83 be 32 3c 22 be
       0.04580786 -0.22067949 -0.25611943 -0.15843275
000240 8b 6c 05 be c4 7d 5a be 86 ff bd be ef cf 5a 3e
       -0.13029687 -0.21337038 -0.3710901 0.21368383
000250 47 0d 6d be a3 e4 c9 bd f1 7f 7d 3e 99 77 c8 be
       -0.23149596 -0.09858062 0.24755837 -0.39153746
000260 69 37 e4 bb c5 84 d5 be 42 da 7e 3d cf a2 d0 bb
       -0.006964613 -0.41702858 0.062219866 -0.0063670645
000270 d9 af 8b be 61 83 a4 be 78 87 89 be a3 ba 8e be
       -0.272826 -0.32131484 -0.26861167 -0.27876768
000280 4c 08 57 be cc 0a c8 be 09 51 30 3d b0 55 b9 be
       -0.20999259 -0.39070737 0.04304603 -0.36198187
000290 6b 87 15 3d 2c a0 53 be 9d 13 6b be 9a 62 92 3d
       0.036506098 -0.2066657 -0.229567 0.07147713
0002a0 df 13 3d 3d 0b 70 61 bd ab cb e5 3d 24 15 61 be
       0.04616153 -0.055038493 0.11220487 -0.21980721
0002b0 78 18 9b 3d a1 f9 85 be b1 cf 4e be 6d 70 0d be
       0.075730264 -0.26167014 -0.20196415 -0.13812418
0002c0 8a 3c 28 be 35 79 21 3e 32 ba 56 bd ec ab ef bd
       -0.16429344 0.15768893 -0.052423663 -0.11702713
0002d0 64 c1 c4 be a3 d7 69 be 18 58 14 3e 07 b2 e7 be
       -0.38428795 -0.22836165 0.1448673 -0.45253012
0002e0 78 d8 15 3e f8 77 00 be db a4 2f be b7 af df bc
       0.14633358 -0.12545764 -0.17152731 -0.027305467
0002f0 89 72 d2 be c0 f4 60 3e 65 cf 7e 3e 0c 9b ad 3c
       -0.41103008 0.21968365 0.24883802 0.021192096
000300 69 21 49 be 05 16 32 be 51 c3 ce be 3c a2 6f bc
       -0.19641651 -0.17391212 -0.4038339 -0.014626082
000310 72 52 88 3d d9 b1 e1 be ee 65 2a 3c 8b b9 4e be
       0.0665635 -0.44081 0.0104002785 -0.20187967
000320 2a 74 70 be f5 29 ea 3b c3 b5 82 be 0d 2d d3 bc
       -0.23481813 0.007146115 -0.25529298 -0.025778318
000330 92 25 23 bb fa cd d8 be ca 1a d1 be fa c3 2a 3d
       -0.002489422 -0.42344648 -0.4084075 0.041690804
000340 dd 09 a9 3d ef ff b0 be 38 82 3b bd 28 60 28 be
       0.082538344 -0.34570262 -0.045778483 -0.1644293
000350 61 ed 10 3e 6b 60 af be a4 b5 06 bc 02 03 b8 3c
       0.14153053 -0.3425325 -0.008222017 0.022462372
000360 4e 42 a5 be 81 3e d9 3d 9d b5 c5 be 8a 5d 08 be
       -0.3227715 0.10607625 -0.38615122 -0.13316932
000370 bf bd bf 3d c6 1c b8 be fa 82 06 be 88 72 9e bd
       0.09362363 -0.35959452 -0.13135901 -0.07736689
000380 ea a4 66 3d 5d 90 a2 be 0b 9b af 3d d0 7d 8f be
       0.056309618 -0.31750765 0.08574494 -0.28025675
000390 13 75 83 be a1 25 2d be ff 22 88 3e 67 5c ee bd
       -0.25675258 -0.16908886 0.265892 -0.11638718
0003a0 12 e2 90 be 40 b6 c4 bc 9d e3 38 be 69 50 13 be
       -0.28297478 -0.024012685 -0.18055578 -0.14386143
0003b0 8b 91 31 be cb f4 81 3e 7c 35 55 be 5d cd b6 bd
       -0.17340676 0.25382075 -0.20821184 -0.08925889
0003c0 f7 7d eb be 6f 59 ad be 1c 56 26 be 9e c4 0a bf
       -0.4599454 -0.33857295 -0.16243786 -0.54206264
0003d0 c9 10 7b be 35 94 fd bc 9e 79 07 bf 79 75 81 be
       -0.24518122 -0.03095446 -0.5291995 -0.25284937
0003e0 55 a7 aa be 5b 3d fb be 78 64 e4 bd 32 63 c6 be
       -0.3333079 -0.49070248 -0.111519754 -0.38747555
0003f0 56 f9 c4 be b2 59 8d 3e 35 b7 f6 be f2 80 7b bf
       -0.38471478 0.27607495 -0.4818665 -0.9824363

net.2.bias f4 [16]
000000 87 4b 12 bf c9 9f 35 bf a3 50 cc be 05 b0 21 c0
       -0.57146496 -0.7094694 -0.3990527 -2.5263684
000010 31 5f 18 bf f6 38 cc be 80 41 e3 be 3f 0e 56 be
       -0.5952025 -0.39887208 -0.4438591 -0.20903872
000020 fa ff 6e bf f5 3e 96 be ae ba c7 3f 46 3a cb bf
       -0.9335934 -0.29344907 1.5603845 -1.5877159
000030 7c dd 16 bf 57 a2 64 bf ad b0 5f bf d5 02 ac be
       -0.5893171 -0.8931021 -0.8737896 -0.3359591

net.4.weight f4 [8, 16]
000000 c6 ec 5e be 26 11 74 3e f2 b0 c5 bc 26 a9 94 bc
       -0.2177001 0.23834667 -0.024132226 -0.018147063
000010 e0 b4 06 be 6e b0 9b 3e 8c 70 aa 3e f4 12 a0 bd
       -0.13154936 0.30408043 0.3328899 -0.07816115
000020 3b f5 00 bc a4 37 3b 3e df d5 8b be 66 82 c3 be
       -0.0078709675 0.18282944 -0.27311608 -0.38185424
000030 18 cc 9e be a8 95 72 be c3 99 e0 3e 50 b1 b4 bd
       -0.31015086 -0.23689902 0.4386731 -0.08822882
000040 1a 87 9d 3e 6b b4 c8 be fa ff 0d be ca 62 96 3d
       0.30767137 -0.39200148 -0.13867179 0.07343061
000050 fb 0a bc 3d 7b 97 88 be 5b b9 15 be 65 70 8a bd
       0.09181782 -0.2667807 -0.14621489 -0.06759719
000060 d1 5b 8b bd 8f 64 4c be 1c 40 c9 3f 7d d7 87 be
       -0.06804622 -0.19960235 1.572269 -0.26531592
000070 d9 1a 09 be a2 1c ee 3e 4d c1 8d bd 9c 65 4c bc
       -0.13389148 0.4650622 -0.06921635 -0.012475397
000080 8a 0b ab be 18 db d2 3d 1e e0 4a be 64 a1 da 3f
       -0.3340724 0.10295695 -0.19812056 1.7080503
000090 b6 81 9b 3e 8c 9d 5e be 36 a1 82 3d 18 63 f0 bd
       0.303724 -0.21739787 0.06378405 -0.11737651
0000a0 20 30 16 be 04 71 bd 3e c7 b3 86 3f 31 86 b0 be
       -0.14666796 0.37000287 1.0523614 -0.3447738
0000b0 f4 26 4a be 05 dd df be a0 fc 4d 3d ab 52 3a 3e
       -0.19741422 -0.43723312 0.05028975 0.18195598
0000c0 19 5d 6b 3e ff 05 6b 3e 33 e7 86 3d a5 32 7c be
       0.22984733 0.22951506 0.065870665 -0.24628694
0000d0 f9 25 f2 bd 8b 1b 06 3f dc 01 42 3e b0 b9 53 be
       -0.11823649 0.5238578 0.18946022 -0.20676303
0000e0 c9 e4 ba be fe f5 b5 be b1 72 fe 3f 78 99 60 bf
       -0.36502674 -0.3553924 1.9878751 -0.87734175
0000f0 b4 5d 7e 3e e3 94 84 3f 95 05 8a 3c e8 18 11 3e
       0.24840432 1.0357937 0.016848365 0.14169657
000100 26 1c ae bd 29 d5 16 3e e8 1c 1b bf 4a f4 28 bf
       -0.08501463 0.14729752 -0.6059098 -0.65997756
000110 da 1c e6 be 32 2c 8f be eb 1c 02 3e de 34 fd 3e
       -0.44943887 -0.27963406 0.12706344 0.49454397
000120 52 3f be be 2d 60 5e 3e 12 fd 57 be 1b 2c 07 bf
       -0.37157685 0.21716376 -0.21092632 -0.52801675
000130 83 ef 07 be 84 43 6f bf 18 8d a6 be 90 4a 73 be
       -0.1327496 -0.93462396 -0.3252952 -0.23758912
000140 3c 29 c0 3e 09 8e 69 3e 24 37 d4 3d 26 2a 98 3f
       0.3753146 0.22808088 0.1036208 1.1887863
000150 bc 93 6e bc 7d 55 8a 3d 12 dc 54 3e 6e 99 49 3e
       -0.01456159 0.06754587 0.20787075 0.19687435
000160 8e d5 c4 3d 72 f7 cc 3d 0e cb 91 3f 46 e1 9b bd
       0.09611045 0.10008134 1.1390092 -0.07611327
000170 0f 7c 91 3d 78 af d5 3e 32 f0 a9 3e cd a0 12 3e
       0.071037404 0.41735435 0.33191067 0.14319153
000180 a2 c9 ab 3e f3 f5 ea bc c3 a6 a0 3c a8 38 07 3f
       0.3355227 -0.02868173 0.019610768 0.52820826
000190 48 c0 81 bd 4f 86 2a 3e 8d 73 c5 be c2 51 e8 be
       -0.06335503 0.16652797 -0.3856472 -0.45374876
0001a0 ce 57 57 3d 8d 91 f0 3d 0a 1e 27 3f b5 65 03 40
       0.05257397 0.117465116 0.6528021 2.0530827
0001b0 2e 33 88 bb f2 31 9c bb e3 7b ce 3e b2 c8 32 be
       -0.0041564917 -0.004766696 0.40328893 -0.17459372
0001c0 e1 61 b1 be 46 1c fc be d9 58 8c be 8b 4e 74 be
       -0.34644988 -0.4924032 -0.27411535 -0.23858087
0001d0 a0 30 f7 3c a6 71 86 bd 45 d7 ac bd 80 35 05 be
       0.030174553 -0.065646455 -0.08439497 -0.1300869
0001e0 29 1d 90 be 40 46 8c be a1 5b 2d bf 95 ae cf ba
       -0.28147247 -0.27397346 -0.6771794 -0.0015844876
0001f0 96 4f 5a bf 37 c7 ea be ca 7c 87 3e a7 e8 f1 be
       -0.8527769 -0.45855114 0.26462394 -0.47247812

net.4.bias f4 [8]
000000 d0 58 c4 be 4b 97 a2 40 13 80 61 40 2b c0 8a 40
       -0.3834901 5.0809684 3.523442 4.335958
000010 65 06 98 bf 46 84 90 40 b4 b0 85 40 77 91 87 bf
       -1.1876951 4.5161467 4.17782 -1.0591267

net.7.weight f4 [1, 8]
000000 da be ae 3e 0b 55 58 40 00 84 2f 40 9c 0b 3f 40
       0.34129983 3.3801906 2.7424316 2.9850836
000010 ff 0c 25 3f ab 19 1e 40 88 c8 35 40 5e db 8b be
       0.64472955 2.4703166 2.8403645 -0.273158
