HW1.DNN/DNN_30_16_8/best_DNN_30_16_8_model_20250920_151940.pth (torch, 7615 bytes, 7 tensors)

net.0.weight f4 [30, 7]
-0.14901389 -0.52737087 -0.41371 -0.22264004 -0.29129755 -0.5598445 -0.25071284 0.8286284
1.4143314 1.1275036 0.6709328 0.77028686 -0.5414836 -1.0019956 -0.05390443 -0.35541517
-0.5799885 -0.45889896 0.5706925 -0.18251723 0.17973576 0.17703103 0.8148433 -0.6884391
0.06799734 -0.8455129 -0.697201 0.0444718 -0.05751118 -0.08211786 -0.13266627 -0.05361129
0.031935208 -0.26104984 -0.1672116 -0.23490807 0.082162976 -1.543376 0.5431866 -1.0014471
-0.055147156 -0.13195427 0.27092835 0.09765652 -0.27614003 0.78510314 -0.25789505 0.35571
0.17809962 -0.43607628 -0.4005964 -2.027878 1.1991775 -0.2199116 -0.50187624 -0.31776357
0.08522143 0.29751655 -0.6949726 0.32978106 -0.24600305 -0.6347557 0.07169113 -0.30837414
-0.11560091 -3.2881298 2.5666761 1.5564784 0.5061761 -3.6481946 -0.71814996 0.094092876
-0.33426586 0.35419327 -0.08640503 -0.024605319 -0.3290177 -0.06998986 -0.06331803 0.047409385
-0.11973478 0.114039496 0.06970819 -0.05165545 -0.008407526 0.23409708 -0.76429677 0.38475952
0.8576955 -0.1440774 0.019637838 -0.44704717 0.039586775 -0.96970403 -0.56614137 0.66426915
0.18850671 -0.9032367 0.19320618 -0.44381678 0.17601223 0.74340194 -0.17855307 -0.019624738
-0.86268705 -0.63969195 -0.5123473 0.024499256 0.35044506 -0.5683751 -0.30198106 -0.119352974
0.11724562 -0.64462245 -1.2854902 0.027082624 0.8322104 -1.1339204 0.7694271 -0.44961643
-0.9183603 -0.45165363 0.21946324 0.067869626 -0.49704087 -0.39431068 -2.2001698 -1.1664655
-0.88092005 -0.16987391 -2.2780142 1.3279504 -0.06410968 -2.5138857 -0.9341741 -1.7174822
2.2373662 0.5612915 -1.3214095 -1.314842 0.19701728 0.015094268 -0.67041165 -0.28019997
0.1910758 -0.017049136 -0.2912606 0.11853808 -0.32131925 0.12069201 0.06264763 -0.5203785
0.18392132 -0.18572259 0.54309916 0.20072502 0.54507595 0.3259093 0.3881684 -0.5057747
-1.1012552 -0.764383 0.3837888 -0.44032186 0.5318648 0.19628973 -0.9295196 -0.299237
-0.16652599 -0.3063671 0.043276526 -0.065508515 -0.24865112 -0.37091655 0.13632274 0.044513404
-0.12327339 -0.3987468 0.43701637 0.14915429 -0.5421155 0.300207 -1.8008554 -0.13572273
-0.5909866 0.7722617 0.6696303 -0.0767799 -0.56352526 -0.53006595 -0.2055489 -0.73947644
-2.0190318 -0.9134796 -1.5955446 1.4437085 -0.75626487 0.38783106 -1.5859529 0.06810871
0.066988155 -0.24048759 -0.4511908 -0.10378873 0.26246142 -0.38049832 -0.054314643 -0.036796425
-0.31408668 -0.013797202
00000000: 1997 18be c701 07bf ccd1 d3be c0fb 63be
00000010: f424 95be f851 0fbf 6f5d 80be fe20 543f
00000020: d008 b53f 0a52 903f 41c2 2b3f 8531 453f
00000030: ab9e 0abf 6441 80bf e4ca 5cbd faf8 b5be
00000040: 207a 14bf cef4 eabe e718 123f cce5 3abe
00000050: a70c 383e 9f47 353e 9299 503f 8b3d 30bf
00000060: 3042 8b3d 8973 58bf c47b 32bf 1028 363d
00000070: d890 6bbd 692d a8bd abd9 07be 8397 5bbd
00000080: 7ece 023d 53a8 85be 8539 2bbe be8b 70be
00000090: 1045 a83d 588d c5bf 470e 0b3f 6b2f 80bf
000000a0: fce1 61bd 051f 07be 1fb7 8a3e 2400 c83d
000000b0: 3a62 8dbe 85fc 483f d20a 84be 9f1f b63e
000000c0: bf5f 363e 6445 dfbe f91a cdbe c1c8 01c0
000000d0: a67e 993f 8230 61be f67a 00bf e8b1 a2be
000000e0: 9388 ae3d 1754 983e b9e9 31bf 10d9 a83e
000000f0: 39e8 7bbe 597f 22bf cdd2 923d 37e3 9dbe
00000100: 2bc0 ecbd b870 52c0 6c44 2440 af3a c73f
00000110: c294 013f 057c 69c0 add8 37bf c4b3 c03d
00000120: e524 abbe d258 b53e 1ff5 b0bd 1891 c9bc
00000130: 0275 a8be d856 8fbd e2ac 81bd 5830 423d
00000140: 8237 f5bd 8a8d e93d 2bc3 8e3d aa94 53bd
00000150: b8bf 09bc 25b7 6f3e f4a8 43bf 33ff c43e
00000160: ef91 5b3f 0789 13be 88df a03c 5ee3 e4be
00000170: be25 223d 863e 78bf a4ee 10bf 8b0d 2a3f
00000180: e707 413e 853a 67bf d7d7 453e f43b e3be
00000190: 8d3c 343e 974f 3e3f 9ed6 36be 0fc4 a0bc
000001a0: 0fd9 5cbf dac2 23bf 3129 03bf aab2 c83c
000001b0: 896d b33e 0881 11bf 439d 9abe 556f f4bd
000001c0: 791e f03d fa05 25bf f18a a4bf 61dc dd3c
000001d0: be0b 553f 4e24 91bf 2df9 443f 2034 e6be
000001e0: a919 6bbf 253f e7be f9ba 603e 3bff 8a3d
000001f0: 247c febe 17e3 c9be 95cf 0cc0 be4e 95bf
00000200: fa83 61bf 6df3 2dbe fcca 11c0 47fa a93f
00000210: f04b 83bd 81e3 20c0 0926 6fbf 75d6 dbbf
00000220: 0231 0f40 cdb0 0f3f f223 a9bf be4c a8bf
00000230: e6be 493e f34d 773c 19a0 2bbf 5f76 8fbe
00000240: 60a9 433e a1aa 8bbc 1c20 95be 18c4 f23d
00000250: f583 a4be 5f2d f73d 674d 803d 8637 05bf
00000260: df55 3c3e 102e 3ebe 8c08 0b3f dc8a 4d3e
00000270: 198a 0b3f 95dd a63e 02be c63e 737a 01bf
00000280: eef5 8cbf 9bae 43bf f77f c43e de71 e1be
00000290: 4b28 083f 2d00 493e fff4 6dbf 9835 99be
000002a0: ca85 2abe 26dc 9cbe ba42 313d 5429 86bd
000002b0: 669e 7ebe c6e8 bdbe 3098 0b3e b053 363d
000002c0: c276 fcbd 8a28 ccbe 9cc0 df3e e7bb 183e
000002d0: 15c8 0abf bbb4 993e 6e82 e6bf e6fa 0abe
000002e0: e64a 17bf f1b2 453f e46c 2b3f c83e 9dbd
000002f0: 3143 10bf 67b2 07bf 697b 52be 544e 3dbf
00000300: d137 01c0 cdd9 69bf ce3a ccbf 71cb b83f
00000310: 939a 41bf cb91 c63e 8100 cbbf 947c 8b3d
00000320: 1631 893d 6142 76be 7b02 e7be 308f d4bd
00000330: 5861 863e add0 c2be 0879 5ebd d9b7 16bd
00000340: f8cf a0be a90d 62bc

net.0.bias f4 [30]
-2.224401 -2.5446484 -2.4583352 -2.161919 -0.6357294 -3.9823005 -1.724275 -5.6150365
-1.8370056 0.34515518 -1.8791175 -0.8692028 -3.4287581 -3.712009 -2.661838 -1.600802
-4.5250864 -2.9015124 -1.614962 -1.0082971 -2.5329914 -2.513055 -2.683726 -1.5294577
-2.1733048 -1.5745214 -0.94426686 -5.4207473 -4.0276446 -1.0501747
00000000: 965c 0ec0 85db 22c0 5d55 1dc0 e25c 0ac0
00000010: 29bf 22bf 03de 7ec0 0bb5 dcbf 61ae b3c0
00000020: 0023 ebbf 2eb8 b03e ec86 f0bf 1384 5ebf
00000030: c670 5bc0 8e91 6dc0 8e5b 2ac0 14e7 ccbf
00000040: 82cd 90c0 61b2 39c0 13b7 cebf e10f 81bf
00000050: 881c 22c0 e5d5 20c0 2bc2 2bc0 45c5 c3bf
00000060: 6d17 0bc0 eb89 c9bf 79bb 71bf c376 adc0
00000070: 77e2 80c0 206c 86bf

net.2.weight f4 [16, 30]
-0.31019527 -0.04349344 0.022670893 -0.5358714 -0.2534091 -0.34078807 -0.37177262 -0.31781903
-0.11021713 -0.13220343 -0.1515499 -0.049472 -0.2075808 -0.20795158 -0.08679926 -0.2540948
-0.08885276 -0.08363099 -0.35358086 -0.010404637 0.06576491 -0.40853217 -0.13135086 -0.27453387
-0.28368667 0.068945676 -0.25983974 -0.10376094 -0.36005148 0.17641628 0.023139067 -0.39728826
-0.1979906 0.07603719 0.05975106 -0.07621277 -0.47318742 -0.41946754 -0.10543384 -0.73367083
0.19096652 -0.29206848 -0.24646704 1.2891493 0.14774494 -0.28271076 -0.6586634 -0.25408426
-0.7796559 -0.59384173 -0.12020876 -0.014807985 -0.5263801 -0.19698818 -0.28038642 -0.5226872
0.2317316 -1.3487341 -0.34842336 0.25165755 -0.25241065 -0.29409832 0.004446782 -0.21839418
-0.048386455 -0.15075177 -0.19670139 0.03696846 -0.12877104 -0.773575 -0.23951086 0.05284791
-0.23708716 -0.06304443 0.029047923 -0.38368893 -0.015910057 -0.20480624 -3.4202077 -1.5738608
-0.16287045 -0.16465421 -0.30266234 0.27897787 -0.31006187 -0.121258475 -0.8024079 -5.224238
-0.02883835 0.1749021 -0.25054392 0.23535472 -0.05856418 0.12253244 0.08528423 -1.8698117
-0.3243027 0.24139076 0.15404254 -2.266552 -0.37810475 -0.10643867 -0.036893915 -0.6604967
0.041126214 -0.46905318 -0.5688316 -0.4201252 -2.0247977 -1.3517076 0.8730545 0.076675214
-0.48856702 -0.10604433 0.093762636 -0.34669173 -1.1304235 -2.2632303 0.668309 -0.2189772
0.07771945 -0.28993648 -0.11701974 -0.6451214 -0.12887308 -0.2165606 -0.12284827 -0.21776994
0.020332519 -0.23332232 0.06989163 -0.20236222 0.091611765 -0.36512735 0.025775429 0.24534906
0.079659455 -0.12977608 0.013543227 -0.44802997 0.13225758 -0.108728826 -0.13090138 -0.24970302
-0.27109057 -0.4275964 0.015596498 -0.4856019 -0.2141327 0.12195686 -0.30925518 -0.4453798
-0.16077213 0.043362714 -0.0031662781 -0.31980124 -0.36505166 -0.32134616 0.040164888 -0.06872043
0.06521924 -0.014078131 -0.42065153 -0.11780492 -0.3528717 0.21628298 0.02158758 -0.42328075
-0.4710676 -0.1991574 0.08632102 0.19765283 -0.37310502 -0.24173425 -0.2987538 -0.05202248
-0.11196065 -0.5853066 -0.12430263 -0.08110206 0.017121404 -2.5776951 -0.105628744 -0.21273856
0.062362336 -0.6909009 0.8260443 -0.23870811 0.060412534 -1.8997456 -0.13343513 0.11801604
-0.28673896 2.210879 0.5375545 -0.4805482 -0.6550218 -0.31792182 -1.0461867 -2.1955254
-0.49313387 0.07588767 -2.8844206 0.16601488 -0.32821602 -0.10283675 -0.5233029 -0.16533236
-0.6445943 -0.1835141 -0.4450868 -0.009515942 0.22066727 -0.2837437 -0.07802085 -0.19729395
-0.103102945 -0.38605663 0.03180476 -1.553785 0.24104713 0.20305431 -0.24265756 -0.3578775
-0.18859594 0.15725657 -0.1739782 -0.24893814 -0.14532475 -0.15893413 -0.29841003 -0.22391647
-0.15038255 -0.10620661 -0.014879542 -0.048562687 -0.3583234 -0.18210079 -0.086805105 -0.08587936
0.12789033 -0.3161294 0.23912022 -0.30323035 0.05444495 0.70810354 -0.08584917 -0.28475907
-0.12372864 -1.0205908 0.24178988 -0.0073395534 0.31775802 0.9533572 -0.16442491 -0.19595344
00000000: ead1 9ebe 2d26 32bd 4fb8 b93c de2e 09bf
00000010: d6be 81be c67b aebe fb58 bebe 2db9 a2be
00000020: 85b9 e1bd 5660 07be e62f 1bbe 27a3 4abd
00000030: 1090 54be 42f1 54be cfc3 b1bd b718 82be
00000040: 70f8 b5bd b946 abbd 8d08 b5be 3678 2abc
00000050: c1af 863d 212b d1be d780 06be b48f 8cbe
00000060: 613f 91be 6433 8d3d b709 85be 9e80 d4bd
00000070: ab58 b8be 78a6 343e 248e bd3c 5e69 cbbe
00000080: 0cbe 4abe 63b9 9b3d 87bd 743d 7115 9cbd
00000090: 9f45 f2be 73c4 d6be b2ed d7bd dad1 3bbf
000000a0: ba8c 433e 008a 95be db61 7cbe d802 a53f
000000b0: 734a 173e 77bf 90be 2a9e 28bf 5517 82be
000000c0: 8797 47bf 0306 18bf 0330 f6bd 319d 72bc
000000d0: d9c0 06bf 45b7 49be cf8e 8fbe d4ce 05bf
000000e0: 0c4b 6d3e 52a3 acbf 8c64 b2be 42d9 803e
000000f0: f83b 81be 0e94 96be 50b6 913b b9a2 5fbe
00000100: e030 46bd ac5e 1abe 176c 49be 3d6c 173d
00000110: 8edc 03be 0309 46bf 5642 75be 0d77 583d
00000120: fac6 72be 701d 81bd e9f5 ed3c e072 c4be
00000130: cf55 82bc bab8 51be afe4 5ac0 4574 c9bf
00000140: 83c7 26be 1d9b 28be 8ff6 9abe 30d6 8e3e
00000150: 6ec0 9ebe 5d56 f8bd 9b6a 4dbf f52c a7c0
00000160: 673e ecbc 8919 333e 4b47 80be d400 713e
00000170: fee0 6fbd 4af2 fa3d 80a9 ae3d fd55 efbf
00000180: 010b a6be 242f 773e 54bd 1d3e 300f 11c0
00000190: f296 c1be 84fc d9bd 131e 17bd 5016 29bf
000001a0: f673 283d bd27 f0be f39e 11bf a61a d7be
000001b0: 4996 01c0 c104 adbf 8080 5f3f e507 9d3d
000001c0: 7525 fabe c52d d9bd a006 c03d 9481 b1be
000001d0: b8b1 90bf c4d8 10c0 4c16 2b3f 8f3b 60be
000001e0: 602b 9f3d 8e72 94be 0ca8 efbd ad26 25bf
000001f0: 4ef7 03be 10c2 5dbe e097 fbbd 15ff 5ebe
00000200: 6290 a63c 0cec 6ebe 5823 8f3d 0b38 4fbe
00000210: f39e bb3d f9f1 babe fe26 d33c c93c 7b3e
00000220: 7f24 a33d 05e4 04be 69e4 5d3c 2f64 e5be
00000230: 886e 073e 38ad debd 030b 06be 26b2 7fbe
00000240: 62cc 8abe eaed dabe 7488 7f3c d0a0 f8be
00000250: 9a45 5bbe 85c4 f93d b256 9ebe d208 e4be
00000260: 73a1 24be 1a9d 313d 5581 4fbb fdbc a3be
00000270: 0de8 babe 7c87 a4be f083 243d 4cbd 8cbd
00000280: aa91 853d f6a7 66bc a35f d7be b543 f1bd
00000290: 99ab b4be 4979 5d3e 70d8 b03c 41b8 d8be
000002a0: c62f f1be ebef 4bbe 13c9 b03d 8165 4a3e
000002b0: 9f07 bfbe 2f89 77be 42f6 98be 8615 55bd
000002c0: a04b e5bd a7d6 15bf 6192 febd d618 a6bd
000002d0: 3042 8c3c f5f8 24c0 e253 d8bd 23d8 59be
000002e0: a66f 7f3d e2de 30bf a477 533f e66f 74be
000002f0: 2273 773d dd2a f3bf 38a3 08be 65b2 f13d
00000300: 73cf 92be 0b7f 0d40 2c9d 093f 6a0a f6be
00000310: 82af 27bf a6c6 a2be 72e9 85bf 7d83 0cc0
00000320: 0b7c fcbe ff6a 9b3d 599a 38c0 ceff 293e
00000330: ee0b a8be 139c d2bd 2ef7 05bf e34c 29be
00000340: 2204 25bf 1feb 3bbe 6be2 e3be c1e8 1bbc
00000350: 9af6 613e db46 91be 65c9 9fbd 6d07 4abe
00000360: a327 d3bd 37a9 c5be b545 023d 6de2 c6bf
00000370: 0fd5 763e 78ed 4f3e 397b 78be b83b b7be
00000380: 4b1f 41be de07 213e 5727 32be a4e9 7ebe
00000390: 03d0 14be a1bf 22be 33c9 98be 5c4a 65be
000003a0: e2fd 19be da82 d9bd 53c9 73bc abe9 46bd
000003b0: 2a76 b7be a178 3abe e0c6 b1bd 85e1 afbd
000003c0: aff5 023e b6db a1be eedb 743e 0241 9bbe
000003d0: ab01 5f3d 4646 353f b1d1 afbd f1cb 91be
000003e0: 7165 fdbd b8a2 82bf c497 773e a380 f0bb
000003f0: 2eb1 a23e 380f 743f 015f 28be 05a8 48be

net.2.bias f4 [16]
-0.51490086 -0.8219177 -1.1574317 -2.0875869 -0.41829792 -0.8542928 -2.67368 -0.5219454
-0.32953453 -0.6936713 -0.44622687 -1.3334526 -0.91987264 -2.3597705 -0.8700854 -1.4403796
00000000: 8bd0 03bf 3369 52bf b926 94bf 069b 05c0
00000010: 252b d6be efb2 5abf 931d 2bc0 379e 05bf
00000020: c0b8 a8be 7194 31bf d977 e4be 93ae aabf
00000030: c67c 6bbf 7b06 17c0 ebbd 5ebf 5c5e b8bf

net.4.weight f4 [8, 16]
-0.076447636 -1.2845805 1.1213167 -1.7082516 0.44152835 -0.16191626 -1.0061016 -0.025554834
-1.7380561 -1.817864 -0.12959729 -0.36040702 -0.22938697 -1.2998992 -0.23328343 1.4346495
0.42087 -1.018089 -1.8958048 -0.42874786 0.049322605 -0.3161046 0.23537718 0.055178966
0.34624588 0.5453282 -0.07449662 -0.37470144 0.009966909 -0.4944804 -0.33474994 0.45385087
-0.08869069 -0.4734479 -0.11845131 -0.9015079 0.035449557 -0.40002465 -1.1559124 0.03879382
-2.4020078 -0.2552839 0.019981036 0.075757235 -0.2878723 -1.4114175 -0.22905363 1.6919945
-0.1233532 -0.06319263 -0.4562837 0.083385125 0.23119502 0.20018627 0.29793918 -0.20665306
-0.2780742 -0.46330664 -0.22605745 0.012938542 0.37226146 -0.6539663 0.43286714 -0.25485677
-0.49796173 -0.41484094 0.29678637 -0.24140814 -0.08847658 0.29504818 0.14138399 -0.43079287
-0.08355043 -0.15971653 -0.27842548 0.03424154 -0.1379989 -0.19427402 0.1317864 0.08224631
0.50470203 0.10589753 -3.2764142 1.0211476 -0.28587812 -0.27340028 0.3839102 -0.07181227
-0.49640957 -2.335631 -0.24976541 0.10442324 0.15019378 0.1689022 0.27522022 1.6028643
-0.17717308 -0.22879161 -0.09354473 -0.09073548 0.2783753 -0.49394 -0.466238 -0.27589628
0.2049902 -0.15032798 -0.026887752 0.10809634 0.19747281 -0.7827543 -0.43852738 -0.084412366
-0.14282587 -0.0009163199 0.21549515 -0.28445235 -0.23933649 0.13055335 0.26679626 -0.58519226
-0.11750135 -0.5815497 -0.090684086 -0.39212444 -0.7650925 -0.1856559 -0.26709142 -1.667501
00000000: 9490 9cbd 226d a4bf 4e87 8f3f fda7 dabf
00000010: 0110 e23e 60cd 25be f0c7 80bf 5f58 d1bc
00000020: 9f78 debf c4af e8bf 27b5 04be 4587 b8be
00000030: 6be4 6abe 1963 a6bf dae1 6ebe 98a2 b73f
00000040: 467c d73e be50 82bf bba9 f2bf d784 dbbe
00000050: 8006 4a3d 76d8 a1be b706 713e 5703 623d
00000060: 2447 b13e a19a 0b3f af91 98bd ded8 bfbe
00000070: 3f4c 233c 892c fdbe 5864 abbe 245f e83e
00000080: 77a3 b5bd c367 f2be 9a96 f2bd 39c9 66bf
00000090: 8e33 113d 08d0 ccbe f0f4 93bf 45e6 1e3d
000000a0: 7fba 19c0 92b4 82be 45af a33c 9c26 9b3d
000000b0: 0064 93be 54a9 b4bf 098d 6abe 4793 d83f
000000c0: 9aa0 fcbd 236b 81bd 049e e9be d2c5 aa3d
000000d0: 63be 6c3e a1fd 4c3e 7c8b 983e dc9c 53be
000000e0: be5f 8ebe 8736 edbe 9b7b 67be 2efc 533c
000000f0: 0e99 be3e 566a 27bf c3a0 dd3e 967c 82be
00000100: d7f4 febe 0866 d4be 62f4 973e b233 77be
00000110: 3633 b5bd 8e10 973e f7c6 103e e290 dcbe
00000120: 7d1c abbd bb8c 23be c98d 8ebe db40 0c3d
00000130: 954f 0dbe c5ef 46be 04f3 063e c170 a83d
00000140: 2734 013f cee0 d83d c5b0 51c0 f7b4 823f
00000150: 9e5e 92be 1ffb 8bbe e18f c43e 5012 93bd
00000160: 6529 febe fa7a 15c0 81c2 7fbe dadb d53d
00000170: 66cc 193e b3f4 2c3e aae9 8c3e a82a cd3f
00000180: dc6c 35be 5948 6abe 6194 bfbd 86d3 b9bd
00000190: 3587 8e3e b4e5 fcbe bfb6 eebe 4742 8dbe
000001a0: f3e8 513e 94ef 19be b443 dcbc 9d61 dd3d
000001b0: 5036 4a3e 9662 48bf a986 e0be 64e0 acbd
000001c0: f240 12be 3035 70ba c3aa 5c3e bda3 91be
000001d0: a014 75be c7af 053e 8599 883e 29cf 15bf
000001e0: 8ca4 f0bd 71e0 14bf 94b8 b9bd 89c4 c8be
000001f0: 1add 43bf 951c 3ebe 35c0 88be ac70 d5bf

net.4.bias f4 [8]
-3.3804133 -2.119004 -0.886575 -0.96917593 -0.60116607 -3.990792 -1.1507214 -3.6295586
00000000: b158 58c0 c39d 07c0 94f6 62bf ea1b 78bf
00000010: 05e6 19bf 2369 7fc0 d74a 93bf b04a 68c0

net.7.weight f4 [1, 8]
-3.3710024 -2.1188533 -0.8831951 -0.4109155 0.12306823 -3.9893146 -0.027698932 -3.6549487
00000000: 81be 57c0 4b9b 07c0 1319 62bf 8463 d2be
00000010: 320b fc3d ee50 7fc0 dfe8 e2bc aeea 69c0
