HW1.DNN/DNN_30_8/best_DNN_30_8_model_20250920_133627.pth (torch, 7589 bytes, 5 tensors)

net.0.weight f4 [30, 25]
-0.17842121 -0.018744912 -0.24019843 -0.07123568 -0.04800988 -0.023874793 -0.2226601 0.1159096
-0.29414937 -0.32506537 0.13071227 -0.4123418 0.23471543 0.14707807 -0.21957347 0.29434353
0.15098615 0.34539422 0.061290804 0.43500957 -0.38755643 -0.0009645534 -0.37796777 -0.16969155
0.051931866 0.0856981 0.27143428 -0.2513276 -0.26551843 0.11425434 -0.23422039 0.0024340004
-0.29764807 -0.2948124 0.036832362 0.11475711 -0.3123481 -0.13075468 0.124477856 0.038703576
0.06922565 -0.32774946 -0.36692917 -0.3168757 -0.10001977 0.0520688 0.30795342 0.15236303
-0.12063893 0.38866097 0.003350147 0.08243986 0.020397084 -0.18186578 -0.033414613 0.20384513
0.22766602 0.1451088 0.087966494 -0.14290822 -0.107828386 -0.31306258 -0.40571284 -0.4213754
0.19271551 0.28517118 -0.45724535 -0.29740366 0.064703375 -0.039659835 -0.2625679 -0.25389484
0.0925889 -0.11417456 -0.24020274 -0.29631042 0.23550914 0.09434623 -0.32515952 -0.26162103
0.45944726 -0.13242194 0.025937168 -0.109802395 -0.28450283 0.31762773 -0.069381036 0.0015933557
0.04516076 0.056230523 -0.38072944 0.4362267 0.4715695 0.52770686 0.3513816 -0.17725718
-0.15860617 -0.12473147 0.031289868 -0.19412206 0.16170569 0.31551185 0.18878824 -0.1188832
-0.0029534714 -0.24990204 0.1991906 0.3671561 0.31527844 0.12683754 0.18317737 0.014701715
0.31244937 -0.18867394 0.14042991 0.42337224 -0.14515015 -0.029061865 0.172339 -0.06271413
-0.060206864 -0.081611216 0.16356613 0.3255165 -0.18809767 -0.032991517 -0.15597503 0.12218924
-0.17743808 0.1339244 -0.11540469 0.0945268 0.043435566 -0.16057189 -0.32093337 0.08012267
0.093327284 -0.39010718 -0.15590806 0.010439217 -0.037329137 -0.38270944 -0.17082341 0.13796823
0.07405841 -0.22256942 -0.24794592 -0.07488241 -0.037385713 -0.07488374 0.0963777 -0.072654925
0.19531311 -0.42278558 -0.10927759 0.39072847 -0.04259403 0.18469803 0.012418691 0.3358985
0.34720358 -0.33582556 -0.12528953 0.05416958 -0.40849742 -0.123164184 0.4165264 0.2458017
-0.031172866 0.2614627 -0.2802179 -0.3953338 -0.18207021 0.05685953 -0.1906643 -0.0776056
-0.07020345 -0.05047808 -0.1479325 0.045327157 -0.050121345 -0.29718846 0.0063614603 0.10316968
0.024139943 -0.22755341 -0.13606925 0.1151301 -0.14115977 -0.2074255 0.032009758 0.1992505
0.19969586 -0.2845462 0.28086224 -0.14283724 -0.22799982 -0.2113929 -0.30119455 -0.37153903
-0.3463282 -0.27687162 0.2717933 -0.18534307 0.21980171 -0.20557043 0.21511078 -0.45275512
0.0015665909 0.11360661 -0.06888913 -0.2001836 0.06355561 -0.3179671 0.16282818 0.4128933
-0.04895953 -0.21401244 0.026927838 0.46965846 -0.029540773 -0.113781646 -0.28287905 -0.088850744
0.11928301 0.08009677 0.1889409 0.16990411 0.1463037 0.010663605 0.3037269 -0.40952566
-0.07736159 0.28088352 -0.26895717 -0.1527183 -0.058746442 -0.107151024 -0.30197957 -0.16300867
-0.16443655 -0.040070716 -0.026216624 0.107297786 0.10237323 -0.08273958 0.071404405 -0.2654906
-0.33581063 -0.18746471 -0.17473224 0.18713757 0.02310306 0.061147265 -0.14003426 -0.1111936
00000000: 0db4 36be ee8e 99bc 94f6 75be 03e4 91bd
00000010: 02a6 44bd 1295 c3bc 0201 64be 0362 ed3d
00000020: bf9a 96be f86e a6be 70d9 053e 771e d3be
00000030: 3e59 703e a29b 163e ded7 60be 32b4 963e
00000040: 1d9c 1a3e 83d7 b03e 110c 7b3d 93b9 de3e
00000050: cc6d c6be 15da 7cba fe84 c1be 9fc3 2dbe
00000060: 82b6 543d 7c82 af3d 6ff9 8a3e 03ae 80be
00000070: 08f2 87be 2efe e93d 78d7 6fbe c083 1f3b
00000080: 5465 98be a7f1 96be 88dd 163d c705 eb3d
00000090: 17ec 9fbe 8ee4 05be 3fee fe3d a487 1e3d
000000a0: 2dc6 8d3d c7ce a7be 24de bbbe 883d a2be
000000b0: 2ad7 ccbd 1846 553d 12ac 9d3e 0e05 1c3e
000000c0: 8b11 f7bd 92fe c63e 248e 5b3b 3bd6 a83d
000000d0: c917 a73c 063b 3abe c3dd 08bd c7bc 503e
000000e0: 4821 693e 6797 143e c727 b43d 8856 12be
000000f0: 21d5 dcbd bd49 a0be 98b9 cfbe 84be d7be
00000100: 3757 453e f501 923e 101c eabe 4b45 98be
00000110: 3483 843d 5a72 22bd 4d6f 86be 81fe 81be
00000120: 409f bd3d 5ad4 e9bd b5f7 75be 00b6 97be
00000130: 4f29 713e 9938 c13d 4f7b a6be 31f3 85be
00000140: ac3c eb3e 9e99 07be 2f7a d43c 14e0 e0bd
00000150: 5baa 91be 1aa0 a23e a517 8ebd 25d8 d03a
00000160: 7dfa 383d fa51 663d f8ee c2be 1b59 df3e
00000170: 8f71 f13e cc17 073f 4ae8 b33e e882 35be
00000180: a869 22be 3773 ffbd ce29 003d efc7 46be
00000190: 2d96 253e c58a a13e b451 413e 0979 f3bd
000001a0: 078f 41bb 52e6 7fbe 9ff8 4b3e e2fb bb3e
000001b0: 2d6c a13e b3e1 013e d992 3b3e 76df 703c
000001c0: 5df9 9f3e be33 41be dccc 0f3e 3fc4 d83e
000001d0: 3ea2 14be 2613 eebc a379 303e 4470 80bd
000001e0: 799b 76bd c823 a7bd e17d 273e 19aa a63e
000001f0: ad9c 40be 1d22 07bd ebb7 1fbe 5a3e fa3d
00000200: 54b2 35be 7a23 093e 4b59 ecbd 4497 c13d
00000210: 7ee9 313d f56c 24be 6151 a4be 5b17 a43d
00000220: 6022 bf3d 21bc c7be 5da6 1fbe 4009 2b3c
00000230: 70e6 18bd 7ef2 c3be 55ec 2ebe 8b47 0d3e
00000240: f0ab 973d 3de9 63be 89e5 7dbe f35b 99bd
00000250: c321 19bd a55c 99bd ac61 c53d 1bcc 94bd
00000260: 2900 483e 5a77 d8be eecc dfbd 900d c83e
00000270: 1477 2ebd 7b21 3d3e c477 4b3c e3fa ab3e
00000280: abc4 b13e 54f1 abbe e64b 00be ece0 5d3d
00000290: 9326 d1be 813d fcbd f342 d53e 71b3 7b3e
000002a0: 3d5e ffbc 70de 853e b878 8fbe 3169 cabe
000002b0: 9d70 3abe 8ae5 683d 813d 43be afef 9ebd
000002c0: d4c6 8fbd 1ac2 4ebd 9e7b 17be f8a8 393d
000002d0: 0a4c 4dbd 1629 98be cc73 d03b a04a d33d
000002e0: 21c1 c53c c303 69be bd55 0bbe 54c9 eb3d
000002f0: 308c 10be 5a67 54be aa1c 033d 5308 4c3e
00000300: 127d 4c3e 0ab0 91be 2dcd 8f3e ed43 12be
00000310: c978 69be 6177 58be 2c36 9abe 5d3a bebe
00000320: ee51 b1be 1ec2 8dbe 7e28 8b3e 93ca 3dbe
00000330: b313 613e 0e81 52be 0046 5c3e 85cf e7be
00000340: 1156 cd3a 95aa e83d bf15 8dbd eefc 4cbe
00000350: 7229 823d 95cc a2be 6ebc 263e c066 d33e
00000360: ca89 48bd 1426 5bbe c597 dc3c 1377 f03e
00000370: 7eff f1bc 5a06 e9bd 86d5 90be 61f7 b5bd
00000380: a74a f43d c609 a43d b979 413e 58fb 2d3e
00000390: a3d0 153e 67b6 2e3c 1882 9b3e 59ad d1be
000003a0: c16f 9ebd f7cf 8f3e c1b4 89be 3062 1cbe
000003b0: 1ca0 70bd ff71 dbbd 119d 9abe bfeb 26be
000003c0: 0e62 28be 3121 24bd 3fc4 d6bc f1be db3d
000003d0: 0ea9 d13d 5e73 a9bd 793c 923d 62ee 87be
000003e0: 5fef abbe c0f6 3fbe 02ed 32be fea0 3f3e
000003f0: a142 bd3c 8e75 7a3d 2465 0fbe 78b9 e3bd

net.0.bias f4 [30]
0.40971404 0.77264184 0.21465692 1.300205 2.7007506 0.9767062 0.4764804 -0.24089888
-0.43804854 0.59152555 -0.17158571 1.8001212 1.1955317 -0.19004996 2.278971 0.050409302
2.0903933 4.0250654 2.2880988 0.35198554 2.709018 2.4276254 0.3056267 -0.15124314
1.9379822 0.3748021 0.07498641 3.0731602 2.961237 0.4632622
00000000: 0ac6 d13e dbcb 453f 06cf 5b3e 1e6d a63f
00000010: 19d9 2c40 6b09 7a3f 3df5 f33e 32ae 76be
00000020: e647 e0be 386e 173f 2ab4 2fbe 5f6a e63f
00000030: 2f07 993f 759c 42be a9da 1140 fc79 4e3d
00000040: 01c9 0540 56cd 8040 3670 1240 7337 b43e
00000050: 8d60 2d40 375e 1b40 1a7b 9c3e 7bdf 1abe
00000060: cd0f f83f 10e6 bf3e 7a92 993d a8ae 4440
00000070: e884 3d40 b430 ed3e

net.2.weight f4 [8, 30]
0.056187153 0.34887987 0.10221129 0.27915147 0.25821304 0.26107812 0.40100372 0.21400921
-0.4189521 0.15588263 -0.15270178 0.23246604 0.14610383 -0.0036748915 0.47285953 -0.21622193
0.2860639 0.34052756 0.40085283 0.29558516 0.48611984 0.38035196 -0.11121296 -0.2424554
0.47111136 0.2508617 -0.014655384 0.24574454 0.5446915 -0.14542353 0.3562151 0.26907706
0.05712874 0.5590061 0.76652867 0.16577412 0.064991474 0.15991761 -0.16227496 0.06442354
0.0974169 0.28000635 0.19901438 -0.13750467 0.40384507 0.13493316 0.48190176 0.83208525
0.44728723 -0.04546179 0.30177286 0.4236075 0.09194683 -0.07316336 0.67673475 -0.049876038
-0.1386112 0.64725655 0.5555692 -0.015983127 0.13490033 -0.24176368 0.15998112 0.5285858
0.12948786 0.35379753 0.32963726 0.09166159 0.027567761 0.24362104 0.14815286 0.22408608
0.3988184 -0.17580518 0.54114604 0.177089 0.33455652 0.61097044 0.3177752 0.0076028835
0.55600095 0.7260457 0.1791172 0.34738764 0.04493934 0.2630291 -0.20103753 0.5639731
0.18027818 0.13830045 -0.08071739 0.16712213 0.20394982 0.18253052 0.5882227 0.107100114
0.078741595 -0.21661752 -0.23339616 0.12570107 0.08115015 0.41721246 0.11603343 -0.03263486
0.3977193 0.33377427 0.30229434 0.60029715 0.6077022 0.18388961 0.48012745 0.17863509
0.4142414 -0.057225738 0.22012462 -0.091756985 -0.06436337 0.5682375 0.5771844 0.18988945
0.04164929 0.03626514 -0.33187538 0.19075161 0.013025993 0.038531918 -0.29055527 -0.36486784
0.017427301 -0.0653232 -0.25432646 0.17775843 0.0432446 -0.3789519 0.15187062 0.15764433
-0.38565457 -0.3928718 -0.27468222 -0.15862098 0.28609636 -0.0018908812 -0.041696344 0.3591394
-0.08986363 -0.3384491 -0.13716221 -0.40707615 -0.15326732 0.020957867 0.07284378 0.13333991
0.114429906 0.18992186 0.25792763 -0.156251 0.06918233 -0.042305816 -0.33099544 0.27719256
0.063273914 0.42767873 0.25902382 0.12791827 0.34298652 0.018564971 0.22341706 0.60133237
0.30139714 0.2842152 0.34562483 0.48197007 0.22130993 -0.105082996 0.17528674 0.0473681
0.060491223 0.52095634 0.45980301 0.17343773 -0.0890258 0.15150304 -0.0018434589 -0.16678794
-0.11995428 -0.29478142 -0.006347534 0.27589768 0.14466654 0.1348618 -0.21447563 0.20538402
0.11251698 0.074109666 -0.55208427 0.1722601 -0.036830172 -0.43140996 -0.09291971 -0.2671272
-0.53666794 0.0505348 -0.12817614 -0.0787795 0.0019104269 6.624851e-05 -0.4532734 -0.3368733
0.063572206 -0.2209954 0.4708069 0.0965524 0.1747482 0.30841607 0.5958445 0.2732322
0.36850747 -0.43312034 -0.32512128 -0.3160028 -0.08873235 0.19975278 0.36395252 0.045420144
0.24600881 -0.0019910745 0.41477603 0.69128394 0.26902235 0.068590544 0.40422353 0.45133033
0.014298415 0.15674938 0.25579396 0.10328211 0.14897841 0.3699547 0.41515514 0.1934914
00000000: 8024 663d 62a0 b23e 2754 d13d f1ec 8e3e
00000010: 8034 843e 08ac 853e 5c50 cd3e 3b25 5b3e
00000020: e480 d6be b29f 1f3e db5d 1cbe 940b 6e3e
00000030: 3e9c 153e 73d6 70bb a51a f23e 4869 5dbe
00000040: f876 923e a159 ae3e 953c cd3e f056 973e
00000050: b3e4 f83e 7ebd c23e 9fc3 e3bd 3a46 78be
00000060: 8235 f13e f270 803e 231d 70bc 75a4 7b3e
00000070: e770 0b3f e8e9 14be d361 b63e 78c4 893e
00000080: d3ff 693d 061b 0f3f 393b 443f b1c0 293e
00000090: 401a 853d 71c1 233e 682b 26be 7df0 833d
000000a0: 8382 c73d fe5c 8f3e 6dca 4b3e 06ce 0cbe
000000b0: c8c4 ce3e eb2b 0a3e d4bb f63e 8a03 553f
000000c0: d502 e53e 2436 3abd f981 9a3e 15e3 d83e
000000d0: 9f4e bc3d acd6 95bd 7d3e 2d3f d14a 4cbd
000000e0: 18f0 0dbe 9bb2 253f c839 0e3f 0cef 82bc
000000f0: 5023 0a3e e690 77be 17d2 233e 6651 073f
00000100: 7798 043e f324 b53e 37c6 a83e 12b9 bb3d
00000110: c9d5 e13c cb77 793e 62b5 173e d276 653e
00000120: ed31 cc3e 4606 34be 8c88 0a3f d256 353e
00000130: fe4a ab3e 8f68 1c3f 6eb3 a23e 9c21 f93b
00000140: 1456 0e3f 22de 393f 806a 373e cbdc b13e
00000150: 5012 383d c0ab 863e c8dc 4dbe 8b60 103f
00000160: d89a 383e a29e 0d3e 294f a5bd 1022 2b3e
00000170: 39d8 503e 48e9 3a3e c395 163f 4e57 db3d
00000180: 4643 a13d fcd0 5dbe 67ff 6ebe c8b7 003e
00000190: 0d32 a63d df9c d53e efa2 ed3d 22ac 05bd
000001a0: dda1 cb3e 76e4 aa3e 53c6 9a3e 13ad 193f
000001b0: 5f92 1b3f 8f4d 3c3e 44d3 f53e 1eec 363e
000001c0: 7317 d43e 8965 6abd 5968 613e 16eb bbbd
000001d0: f1d0 83bd 0378 113f 5bc2 133f 6172 423e
000001e0: 7298 2a3d c18a 143d 92eb a9be 6454 433e
000001f0: f96a 553c a5d3 1d3d a9c3 94be f5cf babe
00000200: b3c3 8e3c 2bc8 85bd 1437 82be 4e06 363e
00000210: 4021 313d fc05 c2be f983 1b3e 846d 213e
00000220: 8474 c5be 7e26 c9be 26a3 8cbe 8a6d 22be
00000230: 397b 923e 72d7 f7ba c9c9 2abd 1fe1 b73e
00000240: 6c0a b8bd 3349 adbe 4074 0cbe 496c d0be
00000250: 1cf2 1cbe d5af ab3c 1f2f 953d 428a 083e
00000260: 3a5a ea3d e07a 423e 170f 843e 4300 20be
00000270: 77af 8d3d dd48 2dbd 3c78 a9be 2fec 8d3e
00000280: c195 813d b5f8 da3e c59e 843e 02fd 023e
00000290: ee9b af3e 9115 983c 71c7 643e ebf0 193f
000002a0: ba50 9a3e a884 913e bdf5 b03e c8c4 f63e
000002b0: 129f 623e c135 d7bd 5e7e 333e 0e05 423d
000002c0: a5c5 773d 655d 053f 4d6b eb3e a999 313e
000002d0: 2953 b6bd 9d23 1b3e 37a0 f1ba 75ca 2abe
000002e0: 97aa f5bd 97ed 96be f9fe cfbb 7642 8d3e
000002f0: 7723 143e 3619 0a3e 809f 5bbe 3050 523e
00000300: 4d6f e63d cfc6 973d 6555 0dbf f464 303e
00000310: 3cdb 16bd c4e1 dcbe b04c bebd e5c4 88be
00000320: 1263 09bf 94fd 4e3d 9b40 03be 2657 a1bd
00000330: 4a67 fa3a e6ee 8a38 7313 e8be a87a acbe
00000340: 2532 823d 9e4c 62be 9a0d f13e 44bd c53d
00000350: 31f1 323e b6e8 9d3e 4489 183f 17e5 8b3e
00000360: 03ad bc3e f3c1 ddbe 4c76 a6be 1ecb a1be
00000370: 4eb9 b5bd fe8b 4c3e fc57 ba3e 790a 3a3d
00000380: bce9 7b3e b07c 02bb 865d d43e fcf7 303f
00000390: 4cbd 893e 3379 8c3d 63f6 ce3e c514 e73e
000003a0: e643 6a3c e982 203e 6df7 823e 9285 d33d
000003b0: cc8d 183e b46a bd3e 378f d43e 9c22 463e

net.2.bias f4 [8]
2.1974423 0.3155457 1.0979472 1.2225639 -0.076952495 2.6416228 -0.48085994 1.8909339
00000000: e5a2 0c40 358f a13e 8989 8c3f f97c 9c3f
00000010: 4599 9dbd 5910 2940 4633 f6be 1f0a f23f

net.5.weight f4 [1, 8]
1.5888385 1.6879495 1.4019521 1.4781772 -0.27723515 1.7533762 -0.22933379 1.6953056
00000000: 0f5f cb3f bb0e d83f 2b73 b33f e934 bd3f
00000010: c4f1 8dbe a26e e03f 7ad6 6abe c6ff d83f
