HW1.DNN/DNN_16/best_DNN16_model_20250920_135138.pth (torch, 4567 bytes, 3 tensors)

net.0.weight f4 [16, 25]
0	0xbfd481f7	-1.6602162
1	0x3f500b4b	0.8126723
2	0x3eccdcc5	0.40012184
3	0xbf46db9f	-0.77678865
4	0xbf7f1ce6	-0.9965347
5	0x3f72362b	0.94613904
6	0x3f8884e2	1.0665553
7	0xbf3d81ef	-0.7402639
8	0xbe8e33e3	-0.2777396
9	0x3d23f367	0.04002705
10	0xbe8670e6	-0.2625801
11	0xbf272e54	-0.65305066
12	0xbf157a3a	-0.5838963
13	0x3f4c8c2f	0.79901403
14	0xbec408d6	-0.3828799
15	0xbfa744ec	-1.3067908
16	0xbfa9be65	-1.3261229
17	0xbe7ef33d	-0.24897476
18	0x3fd82af7	1.6888112
19	0xbf8f13f6	-1.1177967
20	0xbe20a7f3	-0.15689068
21	0x3d43f18c	0.04783778
22	0xbd972263	-0.073796056
23	0xbfb25ac8	-1.3933954
24	0xbe6a1a43	-0.2286158
25	0xbf04c188	-0.51857805
26	0x3f180658	0.5938468
27	0x3f7137ea	0.94225943
28	0xbec0f977	-0.37690327
29	0xbf8d6f6f	-1.1049632
30	0x3f15467a	0.58310664
31	0x3f62d12c	0.8860042
32	0xbe7fcdfa	-0.24980918
33	0xbdc2e101	-0.09515572
34	0xbf7df1aa	-0.99196875
35	0xbf13e67f	-0.57773584
36	0xbf915e5d	-1.1356922
37	0xbebefb3d	-0.37301055
38	0xbf0cae40	-0.54953384
39	0x3e0c197f	0.13681601
40	0x3eb779ad	0.3583502
41	0x3ebcfa33	0.36909637
42	0xbf37b820	-0.7176533
43	0x3f0ab828	0.5418725
44	0x3fac4c7e	1.3460844
45	0xbf9d2b0d	-1.2278763
46	0xbf66babe	-0.90128696
47	0xbf2ef376	-0.6834024
48	0x3d42b975	0.047540147
49	0xbf5c872c	-0.86143756
50	0xbfad340e	-1.3531511
51	0x3ec27cd3	0.37985858
52	0x3ee51886	0.44745272
53	0xbd8bd0ba	-0.06826921
54	0xbf4fd766	-0.81188047
55	0x3ea71a71	0.3263736
56	0x3e8d3282	0.27577597
57	0xbe6885de	-0.22707316
58	0xbceaff3e	-0.028686162
59	0xbd95e623	-0.07319286
60	0x3ee5f07b	0.44910035
61	0xbfbd09bc	-1.4768596
62	0x3e8e9c6b	0.27853712
63	0xbe7ad075	-0.24493583
64	0x3f05fa38	0.5233493
65	0x3f068c9b	0.52558297
66	0xbe6b2360	-0.22962713
67	0xbe89c57c	-0.2690848
68	0x3f331740	0.6995735
69	0xbe8ef605	-0.27922073
70	0x3ebfdfeb	0.37475523
71	0x3ccc3a43	0.024930125
72	0xbee2ceee	-0.442985
73	0xbbaf814c	-0.0053559896
74	0xbe9ef626	-0.3104717
75	0xbeb5b455	-0.35489145
76	0x3f927d00	1.1444397
77	0x3edf0312	0.4355703
78	0x3e94f0e6	0.2909004
79	0xbe9ccedc	-0.3062657
80	0x3f40a100	0.75245667
81	0x3f2d6277	0.6772837
82	0x3e5c73ac	0.215285
83	0x3ce1b408	0.027551666
84	0xbcf938ac	-0.030422531
85	0x3f553f07	0.832993
86	0xbea89793	-0.32928142
87	0xbf2f4783	-0.68468493
88	0xbec1ba50	-0.37837458
89	0xbea402b1	-0.32033303
90	0x3ce693e1	0.028146686
91	0x3ea250da	0.3170231
92	0xbef43d22	-0.4770289
93	0xbe2a727d	-0.16645236
94	0xbf2884cd	-0.6582764
95	0x3e1ffe17	0.15624271
96	0xbd416c24	-0.04722227
97	0x3e58da60	0.21177053
98	0xbec2b1ee	-0.38026375
99	0xbf1c23cd	-0.6099213
100	0xbf3658b2	-0.7122909
101	0x3e319072	0.17340258
102	0x3f6e0de4	0.92989945
103	0x3f66625e	0.89993846
104	0xbf358d42	-0.7091867
105	0x3e03d61e	0.12874648
106	0x3e0d4606	0.13796243
107	0x3f93e68d	1.1554734
108	0xbd515f73	-0.051116418
109	0xbef7a2ed	-0.4836649
110	0xbe01ebfa	-0.12687674
111	0xbd9e3829	-0.077255554
112	0x3f23cc2c	0.63983417
113	0xbe9fc943	-0.31208238
114	0x3ea3ae2a	0.31968814
115	0xbec0f948	-0.37690187
116	0xbeea585e	-0.45770544
117	0xbef971c7	-0.48719618
118	0x3dacbcbe	0.08434437
119	0xbec99da9	-0.39378098
120	0xbf3842a6	-0.719767
121	0xbc903da3	-0.017607516
122	0xbeb68dd2	-0.35655075
123	0x3e9c29da	0.3050068
124	0x3e9ea462	0.3098479
125	0xbe5db4a9	-0.21650948
126	0x3fcc8c8f	1.5980395
127	0x3f43773d	0.7635382
128	0x3e9d8acc	0.30769956
129	0xbf676a9a	-0.90397036
130	0x3df662c9	0.120305605
131	0x3f11e588	0.5699086
132	0x3f0b1f43	0.54344577
133	0x3d9ad1ef	0.07559573
134	0x3e513e7d	0.20433994
135	0x3f8287e7	1.0197724
136	0xbf36d752	-0.714223
137	0xbf29f49d	-0.66388875
138	0x3e815813	0.25262508
139	0xbf6bb2d4	-0.92069745
140	0x3f326789	0.6968923
141	0x3f1c2929	0.61000305
142	0xbe55b0a8	-0.2086817
143	0x3ed8e52e	0.4236235
144	0x3db6c41a	0.08924122
145	0xbfbde2b3	-1.4834808
146	0x3e71be98	0.23607862
147	0xbe0cdf35	-0.13757022
148	0xbf39143b	-0.72296494
149	0xbf789573	-0.9710304
150	0x3ce0b998	0.027432248
151	0x3f4165a8	0.7554574
152	0x3f268a6c	0.65054965
153	0xbf22fe17	-0.6366896
154	0xbfaa42f5	-1.3301684
155	0xbe79a186	-0.24378023
156	0x3eab342c	0.3343824
157	0xbe3abb8f	-0.1823561
158	0xbde4fe5d	-0.111813284
159	0xbf4058a6	-0.75135267
160	0x3f34e734	0.7066529
161	0x3f5d5419	0.8645645
162	0x3f1e83d5	0.6191991
163	0x3cdb4582	0.026766542
164	0x3eebb23f	0.46034428
165	0xbee021dc	-0.43775833
166	0x3f2ffe1e	0.6874713
167	0x3e08811a	0.13330498
168	0x3ec8b9b1	0.3920417
169	0x3ee3c600	0.44487
170	0xbf0878a9	-0.5330911
171	0xbc4586c5	-0.012056057
172	0xbf3f478f	-0.74718565
173	0xbf6d32ea	-0.92655814
174	0xbe778140	-0.24170399
175	0xbe21bb98	-0.15794218
176	0x3ee27b7d	0.4423484
177	0x3e3760c9	0.17908014
178	0x3e065699	0.13118972
179	0xbf9c97a0	-1.2233772
180	0x3e01c696	0.12673411
181	0x3f8bd8bb	1.0925516
182	0xbf6b1e91	-0.91843516
183	0x3f041e40	0.5160866
184	0xbebc76f3	-0.368095
185	0x3e1655bc	0.14681143
186	0xbf2d8350	-0.6777849
187	0x3de366b7	0.11103576
188	0xbe4ad1c6	-0.19806585
189	0x3e92b10c	0.286507
190	0xbe371fed	-0.17883272
191	0x3ef11222	0.47084147
192	0xbf588eec	-0.8459308
193	0xbdf1f3f3	-0.11814108
194	0xbdd2f33f	-0.10300302
195	0xbd262cdf	-0.040570136
196	0xbf20db49	-0.628346
197	0x3ebe95c3	0.37223634
198	0xbf1ee3c6	-0.62066305
199	0xbde4ac2c	-0.11165652
200	0xbe687e66	-0.22704467
201	0x3fb3d68a	1.4049847
202	0x3da15bbd	0.07878826
203	0x3e4a22a6	0.1973978
204	0xbf2a9ccd	-0.6664551
205	0xbe9db26b	-0.30800185
206	0x3e2fbc4b	0.17161672
207	0xbf7afb35	-0.9803956
208	0x3e8a6c36	0.27035683
209	0x3f179ddd	0.59225255
210	0x3f368e3e	0.71310794
211	0xbf5460a6	-0.82959974
212	0xbf824b77	-1.017928
213	0x3ec412f3	0.38295707
214	0xbe813e68	-0.25242925
215	0xbef2537c	-0.4732932
216	0xbe221c5c	-0.1583113
217	0xbdfec0ac	-0.12439093
218	0x3e00651d	0.12538572
219	0xbe96f76e	-0.2948565
220	0xbf009835	-0.5023225
221	0xbe966196	-0.29371327
222	0x3f3afb09	0.730393
223	0xbf50e340	-0.81596756
224	0x3e703aea	0.23459974
225	0x3f02d5d0	0.511075
226	0x3f309cda	0.68989336
227	0x3f2bc3b5	0.670955
228	0xbe4c0c34	-0.1992653
229	0xbf18981e	-0.5960711
230	0x3f80ac4f	1.0052584
231	0xbe84036f	-0.2578387
232	0xbd9e6d0a	-0.07735641
233	0xbe0668aa	-0.13125864
234	0x3f01fcf4	0.507766
235	0xbdcc1513	-0.09964957
236	0xbf72b6b0	-0.9481001
237	0x3e803d28	0.2504666
238	0x3f8c38ab	1.0954794
239	0xbf8d0df7	-1.1019887
240	0x3eac7a8a	0.3368724
241	0x3eb5893e	0.3545627
242	0xbf037409	-0.5134893
243	0x3f8adae8	1.0848055
244	0x3e854e77	0.26036426
245	0xbf51b87d	-0.8192213
246	0x3f6b9ad7	0.9203314
247	0xbf9657d6	-1.1745555
248	0xbf06f9ad	-0.52724725
249	0x3cffd486	0.031229269
250	0xbf3b6909	-0.73207146
251	0x3f95ac00	1.1693115
252	0x3f407119	0.75172573
253	0xbe8eb7b1	-0.2787452
254	0xbc4dd93a	-0.012563998
255	0x3f7d62a2	0.98978627

net.0.bias f4 [16]
0	0x40b63322	5.693742
1	0x40a355ef	5.10424
2	0x40d62067	6.6914554
3	0x40d1d803	6.5576186
4	0x40c127da	6.0361147
5	0x40ae77f0	5.452141
6	0x40baf39f	5.842239
7	0x40da8827	6.82912
8	0x40b9a51c	5.801405
9	0x40bb26b7	5.848476
10	0x40b46003	5.63672
11	0x40bc6c8b	5.88825
12	0x40bdc360	5.9300995
13	0x40c1b544	6.053377
14	0x40b8f8a9	5.780354
15	0x40c4b5bc	6.1471844

net.3.weight f4 [1, 16]
0	0x3f880553	1.0626625
1	0x3f0553b6	0.5208086
2	0x3f9cd215	1.2251612
3	0x3f483c2c	0.78216815
4	0x3d549af0	0.051905572
5	0x3fbfd814	1.4987817
6	0x3f8709d2	1.0549872
7	0x3f491779	0.7855144
8	0x3f158bed	0.58416635
9	0x3f2bc3e7	0.670958
10	0x3fd81eb8	1.6884375
11	0x3f8e1175	1.1099077
12	0x3fa08050	1.2539158
13	0x3fb7ec56	1.4368999
14	0x3fc6f26a	1.5542729
15	0x3f9378cc	1.1521239
